model.pt (torch, 10983 bytes, 12 tensors)

fc1.weight f4 [40, 4]
00000000: ca70 3abe 3cd9 203e b02c fcbd 904a 283c
00000010: c743 a13d 9b46 b03e 800d 8d3e a271 41be
00000020: 751d abbf 0c62 acbf 3f5f b13e f3ea eebf
00000030: eb9c 883d 7948 b7be 7fc3 8c3e cd7c 38bf
00000040: 18b0 8cbc 37ca 253f 6fc3 5a3e 98d0 05bf
00000050: 8e57 11bf 6d04 9a3f 21c5 843e 12c5 a0bd
00000060: 78b8 a93d fcf7 143e 9ab1 313e c64b d2be
00000070: f7c3 97be 3c04 c13d b92e 143e 7f30 a23c
00000080: c523 84be 05ac 76bc 1ef2 debe ad25 80be
00000090: e9d6 bfbe 4689 653d 426e f4be 5af1 233e
000000a0: 34ea 81bf dd77 1bbf 6e26 09bf a91f 33bf
000000b0: f648 95bf 232e 9bbf 78c1 693f 31e5 9dbf
000000c0: d4ca a4be 9336 afbe 853f 183e fd86 edbe
000000d0: 1f9a f3bd 2d14 083e 06dc 1fbe cb1a cabe
000000e0: 1ee3 16bf a9ab 9e3d da56 cabe da14 8abe
000000f0: db99 bfbe 0e9c 02bc 8ce5 b3bd dd5b 4fbe
00000100: e84f 02be abb5 ab3e 9209 d9be 1d2f 71bd
00000110: de1f a5bd 704c e9bd 332e 573e 3754 c8bc
00000120: e91c abbd 50e7 953f 6d2d 603e 8264 2cbf
00000130: 2708 1fbe feb0 90be 4a93 febe 6921 cc3c
00000140: e045 55be 5732 30bf 6277 933f 7736 513f
00000150: 46e4 9bba a292 703d 0637 143f d91c 5ebf
00000160: b3a7 07bf 61c8 133e e23b aa3f e893 c6be
00000170: 806a 45be 2b38 933e b59c c4be 0dde 5e3d
00000180: 88da aebe 06f8 f2be d6e6 973f 9289 a93f
00000190: 4218 983d 5524 963f 3fef c03e 2bdc 28bf
000001a0: 96ea 8abe e732 e8be c23c d3be bfe6 1d3e
000001b0: 8e3d 53bf 4b65 a1bf c672 003f ad31 bebf
000001c0: 7be8 693d a89b 11bf 0c2b 92be 36e3 08bf
000001d0: edbd fabe ae1c 163d a576 4dbf 3267 4dbe
000001e0: 60e7 b43c 8278 9bbe 90d5 08bf 6d46 683e
000001f0: 438f 0dbf 17a5 503f 74de 4e3e 2c92 e7be
00000200: 5a3f 953d d749 6f3e 911b 2dbf 4bbd 273d
00000210: 29b9 983b 51cf 93be 6c2e a7be f2da 6abb
00000220: 14d4 aabe 7b10 433f 36b3 1ebf f793 353e
00000230: 2724 353e 8435 f3be a664 36bf 771f 843c
00000240: f816 63be cf2c c13d 87d6 653d 3eca 983d
00000250: 92dd 4bbe eec8 a73e 9628 293e 4666 80bf
00000260: 0aa7 773e af57 0fbe 8ecd 01bf 465a 4ebf
00000270: 87f2 e0be 9ef3 5e3f ec74 8dbe 79a8 63bd
-0.18207088 0.15707868 -0.12313211 0.010271683 0.078742556 0.34428868 0.27549362 -0.18891004
-1.3368365 -1.3467422 0.3464298 -1.8665451 0.06670555 -0.3579748 0.27492902 -0.7206543
-0.017173812 0.6476168 0.21363614 -0.52271414 -0.5677422 1.2032601 0.25931647 -0.07850088
0.08287138 0.14547724 0.17352906 -0.41073436 -0.29641697 0.09424636 0.14470948 0.019798515
-0.2580854 -0.015055661 -0.43544096 -0.25028744 -0.3746865 0.056039117 -0.4774037 0.16010037
-1.0149598 -0.6072977 -0.53574264 -0.69970185 -1.1662891 -1.2123455 0.91310835 -1.2335569
-0.32185996 -0.34221324 0.14867981 -0.4639205 -0.11894631 0.13288946 -0.15611276 -0.39473566
-0.58940303 0.07747585 -0.39519387 -0.26969033 -0.3742207 -0.007971777 -0.08784017 -0.20249887
-0.12725794 0.3353704 -0.42390114 -0.05888282 -0.08062719 -0.113915324 0.21013717 -0.02445422
-0.083551235 1.1711216 0.21892329 -0.6734086 -0.15530454 -0.28260034 -0.49721748 0.024918275
-0.20827436 -0.6882681 1.1520808 0.8172373 -0.0011893592 0.05873359 0.5789646 -0.8676277
-0.52990264 0.14431907 1.3299525 -0.3878472 -0.19278908 0.2875379 -0.38400808 0.054410983
-0.341511 -0.47454852 1.186732 1.3245108 0.07426502 1.1729838 0.3768253 -0.6596095
-0.271321 -0.45351335 -0.41257292 0.15420054 -0.825158 -1.2609037 0.5017513 -1.485891
0.057106476 -0.5687814 -0.28548467 -0.53471696 -0.48973027 0.036648445 -0.8025916 -0.20058897
0.022082984 -0.30365378 -0.5345087 0.22683115 -0.55296725 0.8150191 0.20202047 -0.45228708
0.07287474 0.23368011 -0.6762019 0.04095201 0.0046607447 -0.28869107 -0.32652605 -0.0035836068
-0.33364928 0.7619702 -0.61992204 0.17732225 0.17689572 -0.47501767 -0.7124733 0.016128285
-0.2217673 0.09432375 0.056112792 0.0746045 -0.19908741 0.32770485 0.16519389 -1.0031211
0.24184814 -0.13998292 -0.50704277 -0.80606496 -0.43935034 0.8709048 -0.27628267 -0.05558059

fc1.bias f4 [40]
00000000: fccc b6bf f9d2 cabe 726a 3a3f 10b4 0abf
00000010: b1ef b1be ff24 b0be 9838 79be f47f 8ebe
00000020: ac51 a6bf 4bd2 4abf 8fba fb3e 9ff2 833e
00000030: 9e8e 7fbf 84c6 43bf d999 97bf 46b5 b1be
00000040: 9128 ccbe d3a6 82bf 8c99 273e 5489 59bf
00000050: 50d3 61bf f9bf 01be 275f 17bf 6e95 23bf
00000060: 50dd 0abf f391 8c3c b38e c9bf 482c dd3e
00000070: 81ad 82bf 0f4e 8cbe 9b03 bcbf 356a b4be
00000080: e5f9 73bf 6516 c6bd 431b 5bbd 4195 18bf
00000090: faf2 16bf 419c ddbd cff0 b7bd f828 573d
-1.4281306 -0.39614084 0.7281867 -0.54181004 -0.34753183 -0.34403226 -0.24337995 -0.27831995
-1.2993674 -0.7922713 0.4916577 0.25771043 -0.9982699 -0.76474786 -1.1843826 -0.34708613
-0.398747 -1.0207161 0.16367167 -0.8497517 -0.8821306 -0.12670888 -0.59129566 -0.63899887
-0.54243946 0.017159438 -1.5746673 0.43197846 -1.0209199 -0.27403304 -1.46886 -0.3523728
-0.95303184 -0.0967224 -0.053492796 -0.59602743 -0.589645 -0.10820819 -0.089814775 0.052529305

fc2.weight f4 [20, 40]
00000000: 2fea cfbe 2a9d 34be f391 f4bf db34 7fbe
00000010: f97b e33d b45a 853e 303a ca3e 98b1 623e
00000020: 5a2a 1b3f c1a4 e13e 6084 a6bf db02 87bf
00000030: bd06 963e 4b77 e93e 5e53 eebe 4439 ffbc
00000040: fb26 703d 16ea ab3e 5349 e03e ce32 fc3e
00000050: 87df 44bf 117f 68bd 7fc0 91be 13e1 bb3e
00000060: be7d 47bf b4c5 113e e7c0 633c 96d7 b5bf
00000070: cc8a 1a3f d63f 973e 0f4d 4e3e a322 9d3e
00000080: e71c db3e 4bd1 c0be 977f f93e 66ff 9bbe
00000090: 8f85 d5be 6c08 003d 2023 17bf d6a0 ff3e
000000a0: a41a ffbe 067b 35bf a033 e3be 0931 84bd
000000b0: e524 3dbf 4929 0c3f ee6b 16bf 59a6 0c3f
000000c0: c43c 2dbf 87dd 2fbf ddb7 25bf 9a8d fcbe
000000d0: 1839 f8be f201 35bf 2672 13bf d5d7 15bf
000000e0: d21e 3ebf 363f e03d 9ef6 32bf a4d1 2cbf
000000f0: ac7f 22bf b9ee 13bf cbc7 1ebf 302b 12bf
00000100: 1d0e 07bf 1b51 16bf e8b1 6c3d d466 95bd
00000110: 17cb 04bf 054f e1be 41c9 28bf d4cb e33e
00000120: 24ea 1dbf f1c4 00bf fbe7 2cbf e429 1dbf
00000130: e071 45bc 618d 2fbf 9ba8 0dbf e5d8 3fbf
00000140: 04ad 1bbf 1145 bfbe 56a6 9fbd 8b2f aa3e
00000150: ddd6 60be cad2 b0be fced 7a3e d5f0 a1be
00000160: 47c4 19bf eb8e 0abf d998 91be 5f91 693e
00000170: a4a8 ee3e eee9 963d f545 1c3f f2bf fabe
00000180: 7b08 efbe e1c3 3fbe 93aa 16bf 3ea9 afbe
00000190: c38d 493f 43a6 4a3e fa9c 343e 0492 8dbe
000001a0: 177e 123f 722d 78be 7d2c 163f 311a f93e
000001b0: ebef 2bbf 7c15 21bf 9942 003f b142 0fbf
000001c0: 6f95 12bf 1eb2 21bf c68a 03bf 75ad 22bf
000001d0: 4a2c eabe 5cd0 17be aaa4 c0be ca89 03bf
000001e0: 2c2e 0ebf 6e98 1ebf 688b 2ebf a57d dabd
000001f0: 4da0 0abf b2c2 23bf c0fc 2e3b c96f 01bf
00000200: 2642 15bf 8d4e 40bf e873 f7be 29a3 08bf
00000210: e7c6 3dbf f411 18bf 77b7 0ebf a79a 34bf
00000220: 81e4 24bf e511 38bf 83f6 33bf 85eb 06bf
00000230: 14f7 32bf 301b e3bc c034 2ebf 5021 11bf
00000240: 6447 a03d 4a94 e83d 26ef e43d 9e49 fcbe
00000250: f668 03bf 4df0 21bf 71cb 27bf abe1 39bf
00000260: 2cad 09bf 1cfc 39bf 39b8 30bf 29cb 10bf
00000270: 3db3 09bf 0640 05be 574c efbe 8622 3cbf
00000280: 76a1 d9bd bb46 ebbe bc2b 133d 146f eabe
00000290: 7551 0dbf 7edb 36bf 00e7 19ba 343e 1dbf
000002a0: e3c5 3bbf d533 04bf 3921 123e 8ab9 d73d
000002b0: 3c19 6e3d fecf 04be 40ba f2bc 6393 32bf
000002c0: 1a84 36bf 6c1f a13d 37e0 f4be 4c4d 3e3d
000002d0: 8c44 f1bd 1bc3 e6be 684a 883c 5c27 2bbf
000002e0: 926c b23d b3e5 19bf 7230 8bbd f75d 213e
000002f0: d460 a93d 6829 edbe f85c d03c c381 14bf
00000300: 41ab 41bf eb21 febe 966d 09be a8f9 03bd
00000310: 2932 12bf eb89 3bbf 5bac 3ebf 417d 0fbf
00000320: f24b 1fbf 2d78 d4be 4819 e3be cf96 c6be
00000330: a557 3cbf 804c 083f c1ec 543e 0745 bfbe
00000340: afc3 20bf 703b 19bf 92e2 01bf 0f4f 21bf
00000350: dad1 19bf a065 fdbe 1dc7 0abf 22c9 26bf
00000360: 41b7 21bf 9850 3abd 3069 9bbe 5a11 05bf
00000370: 4c09 11bf 7cfd 2dbe a0c8 40bf 82de 15bf
00000380: f833 8bbc 72bd cfbe 2978 18be c8f2 9d3d
00000390: 7db6 0abf 0fa7 f63e 4e54 2bbf 4d07 21bf
000003a0: a0e4 4abf c49e 6bbf 1120 75be ab2e 2dbf
000003b0: cb2d 14bf ea7c acbe 5fca 49bf 0e01 533d
000003c0: 13d0 1c3f f7ca 01be 86f4 1dbf 9fa6 23bf
000003d0: 4734 17bf f306 22bf ca2d ffbe 11ad 20bf
000003e0: b2e7 35bf ef18 e3be b498 16bf 0f57 fabe
000003f0: 98b1 04bf 3bd0 2dbf 3b1a 12bf 7679 35bf
-0.40608355 -0.17638078 -1.910704 -0.24922507 0.1110763 0.26045763 0.3949752 0.22138059
0.606115 0.4407101 -1.3009148 -1.0547746 0.29302016 0.45598826 -0.4654798 -0.031155236
0.058630925 0.3357703 0.43805942 0.4925751 -0.76903576 -0.056761805 -0.28467175 0.36695156
-0.7792624 0.14235574 0.013900972 -1.4206417 0.6036804 0.2954089 0.20146583 0.30690488
0.42795488 -0.37659678 0.48730156 -0.3046829 -0.4170346 0.03125803 -0.5903797 0.49927396
-0.49825013 -0.70890844 -0.44375324 -0.06454665 -0.7388442 0.54750496 -0.5875844 0.54941326
-0.67670846 -0.686974 -0.6473368 -0.49326783 -0.4848106 -0.70706093 -0.5759605 -0.5853246
-0.7426578 0.109495565 -0.6990756 -0.67507386 -0.6347606 -0.57786137 -0.6202361 -0.5709715
-0.5275591 -0.5871751 0.057786852 -0.072950035 -0.5187239 -0.440056 -0.6593209 0.44491446
-0.61685395 -0.5030051 -0.67541474 -0.61392045 -0.012051076 -0.685751 -0.55335397 -0.7494033
-0.60810876 -0.3735738 -0.07795398 0.33239397 -0.21956964 -0.3453582 0.24504846 -0.31629053
-0.6006512 -0.54124326 -0.28436926 0.22809361 0.46613038 0.07368837 0.61044246 -0.48974568
-0.46686158 -0.18727066 -0.58854026 -0.3430881 0.78731936 0.19789986 0.17638007 -0.27650464
0.5722365 -0.24236086 0.58661634 0.48652795 -0.6716296 -0.6292341 0.5010162 -0.5596114
-0.5725927 -0.6316241 -0.51383626 -0.63545924 -0.45736915 -0.14825577 -0.3762563 -0.51382124
-0.555392 -0.6195134 -0.6818147 -0.10668496 -0.5415085 -0.63968956 0.0026700944 -0.50561196
-0.5830406 -0.7511986 -0.48330617 -0.5337396 -0.74131626 -0.59402394 -0.55748695 -0.7054848
-0.6441117 -0.71902305 -0.7029802 -0.52703124 -0.6990826 -0.027722925 -0.6804924 -0.56691456
0.07826117 0.11356409 0.111784264 -0.49274915 -0.5133203 -0.63257295 -0.655448 -0.72609967
-0.53779864 -0.72650313 -0.690311 -0.5656 -0.5378912 -0.13012704 -0.4673793 -0.7349018
-0.10626499 -0.459524 0.03593038 -0.4578787 -0.5520242 -0.7142867 -0.00058709085 -0.6142304
-0.73348826 -0.5164159 0.14270486 0.10533436 0.058129534 -0.12969968 -0.029629827 -0.69756144
-0.7129532 0.07867321 -0.47827312 0.046460435 -0.117806524 -0.4507073 0.016637042 -0.6685693
0.087121144 -0.6011612 -0.067963496 0.15758501 0.082704216 -0.46320653 0.025434956 -0.580105
-0.7565194 -0.49635252 -0.1342071 -0.032220513 -0.5710779 -0.7325732 -0.74481744 -0.560505
-0.6222526 -0.41497937 -0.44355226 -0.38786933 -0.73571235 0.5324173 0.2079344 -0.3735735
-0.6279859 -0.5985632 -0.50736344 -0.6301126 -0.60085833 -0.49491596 -0.5421007 -0.65150654
-0.6317025 -0.045487016 -0.3035369 -0.519796 -0.5665481 -0.16991228 -0.7530613 -0.58542645
-0.016992554 -0.40574223 -0.14889587 0.077123225 -0.54184705 0.4817433 -0.66925514 -0.62901765
-0.79255104 -0.9203913 -0.23938014 -0.67649335 -0.57882375 -0.33689052 -0.7882442 0.051514678
0.61254996 -0.12675081 -0.6170124 -0.6392612 -0.59064144 -0.63291854 -0.49839622 -0.6276408
-0.71056664 -0.4435496 -0.58826756 -0.48894545 -0.51833487 -0.6789586 -0.57071275 -0.7088846

fc2.bias f4 [20]
00000000: 2d90 ce3e dec7 e6be d1ef 41bf a48d f5be
00000010: 9066 36bf 8cc0 79bf 15ac 41bf bfdf f3be
00000020: 47d9 0cbf 5dc7 19bf 6577 9abe 2238 f9be
00000030: a553 1cbf 2c51 a5be 9bd7 2abf 0dec 08bf
00000040: b330 40bf aebc 17bf 3fa4 1bbf bc79 10be
0.40344372 -0.45074362 -0.75756556 -0.47959626 -0.7125025 -0.9755943 -0.756532 -0.47631642
-0.5501904 -0.6006983 -0.30169216 -0.48675638 -0.6106513 -0.32288492 -0.6673524 -0.53485185
-0.7507431 -0.5927228 -0.60797495 -0.14108938

fc3.weight f4 [20, 20]
00000000: c9f0 04bf 614b 223f c88d 673e fd2b e03e
00000010: b841 46bd 8b23 2ebf 92d8 e5be f2d5 42be
00000020: 1722 abbe 7ede 1c3e d4a8 d5be 83ec 27bf
00000030: 6699 d9be 76a7 0cbe 2b86 143e 156a 34bf
00000040: 072c 0abe 18c5 11bf aa39 82bf fee9 debc
00000050: 8f79 babe ef2e c63e a549 d23e 748e 043f
00000060: 63e3 033f 21dc 29bf 5d73 dc3e faa2 4a3d
00000070: b1da 593d 6006 93bb f93f 1fbd a686 b5be
00000080: 8490 d13d c06b 0cbf 1611 913e f094 123f
00000090: 674f 8fbe e86a fa3e bfde d83e ed34 9dbc
000000a0: 9acd 44be 7d5e f5bd c005 d7bb 7c1e e0bd
000000b0: 027c c7bd e09f 693d c4e2 53be d8d2 18be
000000c0: a4e9 53bd 2c0c 1c3e 80cf 373c f8ec 36bd
000000d0: 1893 c73d a4dd c2bd 006c 8b39 52be 0e3e
000000e0: 10b4 41bc d8d5 153e fc67 9d3d 1f1c e6bd
000000f0: 551f e8be facd 46bf bc45 cb3e 0a27 e63e
00000100: b787 34bf b4e2 4a3f 2a58 f0be 2748 02bf
00000110: 6647 10bf 60af d43c 8a75 43bf 9687 dcbd
00000120: 00e0 f8be f8ab e33e 4d9d d93e 4578 d2be
00000130: 493a 073f 1578 0cbf 5032 e03e cf5d 46bf
00000140: 88b0 3cbb 7697 2fbf c558 4abf e6af 38bf
00000150: c0d2 de3e 1faa e2be b747 fdbe 2437 55bf
00000160: ede7 01bf e445 813d ae03 1cbf 0d30 2cbf
00000170: b718 46bf 6061 3abf 5b1f 03bf 73a9 053f
00000180: 79a5 00bf 4f77 313f 5fbc 1abf 09eb d2be
00000190: 4b76 a9bd 2e00 50bf 1b52 5ebe e397 4dbf
000001a0: 6725 c63e 4ce9 39bf 3538 34bf e586 0ebf
000001b0: d2df aebd 0021 3dbe c067 a6be 4e79 ccbe
000001c0: a719 2dbf 0c9f d3be b950 58bf b478 203f
000001d0: d63f 1dbf c6ed 273f 9852 f7be 63f8 bdbd
000001e0: f121 20bf 33ae db3e 2603 01bf 4f9e 433f
000001f0: ea2a 27bf ea85 e03e 73c6 1a3f ade5 2a3f
00000200: 5ab9 4abf 5002 fc3d 23b8 5bbf e0f5 c7be
00000210: b329 113f 6cbc 32be 2dfc aabe 3249 09bf
00000220: 8e25 1fbf 0f5a 02bf c6f3 6bbe d123 5dbf
00000230: 10b2 e0bc 4c2f 29bd 7059 4f3c f466 5bbe
00000240: 3ab2 213e 686d 1abd 1ab7 313e bc4f a53d
00000250: 1cd3 ecbd 4467 433e 2393 26be 30a1 bcbc
00000260: a093 7cbd 8232 fcbd 5ed8 5ebe 78e5 c53c
00000270: 39bf d5bd 00ef 46bc 38f7 913c 0da8 32be
00000280: a0db 35bc 4c89 483f 4226 073f 80f4 a7bc
00000290: fce9 cfbe 2e1b 513f 27b7 e2be 74ba 4bbf
000002a0: e8a9 d8be 5cf9 f13d ca9e 0fbf a612 b1bd
000002b0: 7b57 0a3f fca9 27bf 8fdd 163f 7f04 28bf
000002c0: 0ef6 83bd 4543 d4be b9bf 0dbf 604b 36bf
000002d0: 1e4d 2ebf 4047 6abd e335 27bf 48cd 3e3d
000002e0: 5020 53bc daeb abbd f402 5a3e b1eb 13bf
000002f0: 3851 13bf 40a1 093e 09cd f7be a7ec 73be
00000300: c266 533e 6cd6 0abf cd33 0cbf d714 febd
00000310: 5696 17bf 3c4f 1dbe b02c 1c3c 5f8a 91be
00000320: a08d d6be 8119 083f 107e c13e bc1b 243f
00000330: c8cb 18bf ca40 1e3f d858 f43e ed91 c8be
00000340: e51a 06bf 48d5 c2bc ec94 11bf ed49 59be
00000350: 798e 0c3f 7738 93be 3bd1 b8bc b8f3 21bf
00000360: f58c 083e 0609 50bf 7dbf 833f aa65 27bf
00000370: 863e f23e 87f2 e7be 140d 82bf f057 fdbe
00000380: 2b25 e43e 6356 00bf 7d3e f0be c37e 72bf
00000390: 4c22 9abe f76d c7be 502a babe 9535 30bf
000003a0: 4adb 23bf 4208 38bf 6c7e 90bf 2cde 223f
000003b0: 5e5b 48bf 70b9 3d3f 54d6 d3be 7675 d6be
000003c0: 2c96 d4be a203 413f 6199 57be 74f6 c93e
000003d0: 421c 46bf 93b7 0b3f b720 203f 47bb 3abf
000003e0: f743 7cbf 5efb 503e 313e 39bf b23b 483e
000003f0: 1987 c63e f12b 2bbf b2cb cbbe b72a 1cbf
-0.5192991 0.6339627 0.22612679 0.4378356 -0.048402518 -0.68022984 -0.44891793 -0.19026926
-0.33424446 0.15319249 -0.41730368 -0.65595263 -0.42499846 -0.13735756 0.14504306 -0.7047437
-0.13493358 -0.56941366 -1.0173848 -0.027211186 -0.36420867 0.38707682 0.4107181 0.51779866
0.5151884 -0.66351515 0.43056765 0.049471833 0.053187076 -0.004486844 -0.03887937 -0.3545429
0.10232642 -0.54851913 0.28333348 0.5725851 -0.27990267 0.48909688 0.42357442 -0.019190276
-0.19219056 -0.11980913 -0.0065619648 -0.109433144 -0.097404495 0.057037234 -0.20691973 -0.1492418
-0.05173649 0.15239018 0.011218905 -0.044659585 0.09744853 -0.09514931 0.00026592612 0.13939789
-0.011822715 0.14632356 0.07685849 -0.112358324 -0.45336404 -0.77658045 0.3970164 0.4495166
-0.70519584 0.7925217 -0.46942264 -0.50891346 -0.56358945 0.025962532 -0.76351225 -0.107680485
-0.48608398 0.4446714 0.42502823 -0.41107383 0.5282331 -0.5487073 0.43788385 -0.7748689
-0.0028791744 -0.68590486 -0.790417 -0.721434 0.43520164 -0.44270417 -0.49468777 -0.8328726
-0.50744516 0.06312159 -0.60943115 -0.6726082 -0.7738146 -0.7280483 -0.5121972 0.52211684
-0.5025249 0.69322675 -0.6044368 -0.41194943 -0.08274516 -0.81250274 -0.21711008 -0.80309886
0.3870041 -0.7262161 -0.70398265 -0.5567458 -0.08538784 -0.1846962 -0.3250103 -0.39936298
-0.6761727 -0.4133228 -0.84498173 0.6268418 -0.6142553 0.6559719 -0.48305202 -0.09275892
-0.6255179 0.4290634 -0.5039543 0.76413435 -0.65299857 0.43852168 0.6045906 0.6675671
-0.79189074 0.123051286 -0.85827845 -0.39054775 0.5670425 -0.1745469 -0.3339552 -0.5362731
-0.6216668 -0.5091867 -0.23042211 -0.86382776 -0.027428657 -0.04130487 0.012655601 -0.21425992
0.15790644 -0.037701994 0.17355004 0.08071849 -0.115637034 0.19082361 -0.16267066 -0.023026079
-0.061664224 -0.12314321 -0.21762225 0.02415727 -0.104368635 -0.012141943 0.017818078 -0.17446919
-0.011099726 0.783345 0.5279275 -0.020502329 -0.40608203 0.816821 -0.4428036 -0.7958138
-0.42317128 0.1181514 -0.5610167 -0.08646135 0.54039735 -0.6549375 0.5893182 -0.6563186
-0.064434156 -0.41457573 -0.5537067 -0.71208763 -0.6808642 -0.057196856 -0.653166 0.04658249
-0.012886122 -0.083945945 0.21290189 -0.5778151 -0.57545805 0.13440418 -0.48398617 -0.23820744
0.20644668 -0.5423343 -0.5476654 -0.12406319 -0.5921377 -0.15362257 0.009532139 -0.2842588
-0.41904926 0.53163916 0.3779149 0.6410482 -0.59685946 0.6181761 0.47724032 -0.39173833
-0.5238479 -0.023783341 -0.5686786 -0.21219607 0.54904896 -0.28754017 -0.022560706 -0.6326251
0.13335021 -0.8126377 1.0292813 -0.653895 0.47313327 -0.4530222 -1.0160241 -0.49481153
0.44559607 -0.50131816 -0.46922675 -0.94724673 -0.3010429 -0.38951084 -0.36360407 -0.6883176
-0.64006484 -0.718876 -1.1288581 0.6362026 -0.78264415 0.7411108 -0.41374457 -0.4188649
-0.41520822 0.7539617 -0.21054603 0.3944584 -0.7738687 0.5457699 0.6254992 -0.7294201
-0.98541206 0.20408389 -0.7236052 0.19554022 0.38774946 -0.66863924 -0.39803845 -0.6100268

fc3.bias f4 [20]
00000000: 4646 eabd 9562 4bbc 6ab4 46be b005 23bf
00000010: 472b 4ebf 5936 e5be 9f40 b8be 69a7 23be
00000020: 8b07 23bf 7cf1 dbbe e9da 1fbf bf4c 74be
00000030: 2cdf 02bf a02d 21bf 907c 1fbf ef3b 27bf
00000040: cbbb 32bf 6b53 9dbf 05b8 d9bd b386 b0be
-0.11439185 -0.0124136405 -0.1940476 -0.63680553 -0.80534786 -0.44768026 -0.35986802 -0.1598183
-0.63683385 -0.42957675 -0.62443405 -0.23857401 -0.51121783 -0.62960243 -0.6229944 -0.65325826
-0.698178 -1.2291082 -0.10630802 -0.34477767

fc4.weight f4 [10, 20]
00000000: fb0a 25bf f5fb 26bf d2f6 4e3e 2b4e 41bf
00000010: 8483 46bf 4733 05bf 7f7d a5be ccc5 33bd
00000020: 1f29 14bf 2063 db3b 7070 2abf b839 35bf
00000030: 6152 d6be cdbf 143f 8404 afbe 90f8 58be
00000040: a803 16bf ce15 1e3c 0b1e 1cbf f20b 0bbf
00000050: a264 49be 293b 0dbe 6097 85bd d726 0e3f
00000060: 71b4 61be 74a5 95bd 2c96 173f 1c1f d13d
00000070: d039 623d 89d6 77be 3d3b df3b 0a67 b03e
00000080: 643f 2b3f 9346 f43e 82d1 403f 541d f23e
00000090: 96c8 003f a66a 933d 5e0f b8be 6c3c ffbd
000000a0: ebc4 1dbf ad22 18bf 4856 dd3d 0e30 1ebf
000000b0: 4c4c 123f d5f3 a6be 7203 1a3f 84cf ab3d
000000c0: 5a28 42be 72ef d0be 44bb de3e 3e1e a7be
000000d0: ee4d 313f 484e bebc b884 de3e 4017 c73c
000000e0: ed65 d93e 1ec0 97be 2c40 10bf 5568 a6be
000000f0: 44e8 34bf 974f 0abf f829 8ebc 2aa8 33be
00000100: f1ff a8be e577 11bf 508e 133d c05a 323e
00000110: 314c 58be 51dc 01bf 2a75 2cbe 1deb e2be
00000120: 24ec 42bd ea12 23be e02c f53b d7af ffbe
00000130: 9ced f83d 7659 bbbd 99a4 a2be 1eaf 0bbf
00000140: 0ea9 0ebf 7111 38bf bcb6 2fbd d958 c9be
00000150: 25a4 93bf 1af5 7abc d286 98be 8898 203e
00000160: 8f41 01bf 4e4b cabd 4e42 9bbe ab04 92bd
00000170: 6856 bfbe 4891 013f 222d 8dbe f06f 3fbe
00000180: 33d4 3cbf ae09 21bf 73a7 60bf 858d 31bf
00000190: e7b7 06bf b393 15bf 307c 07bd 4358 d33e
000001a0: 74f3 2bbf 863d 35bf b5c3 07bf e6cb 1fbe
000001b0: 130b c73e 3884 09bf 2767 5dbf 4619 20bf
000001c0: ee37 0ebf 1e90 f0be d217 28bf c8d1 c2be
000001d0: f2f7 5b3e b9d0 eebe 1482 10bf 55d4 aabe
000001e0: db9a eabe 67ec 18be a880 0dbe 8cdc d73e
000001f0: e9c4 49bd b449 e0be d264 a7bd a009 003d
00000200: deb7 06be d7a8 babe 90b6 1bbf 263e 453e
00000210: 691f 843e a714 ba3e 70e9 1e3c 4c46 d53e
00000220: c675 04be b131 a43d 3e7a 10be 85a7 a9be
00000230: 908c b13c 06ad 35be c0a0 0a3e 2001 fb3c
00000240: a595 26be d27c 013e e80f 513d 5234 22be
00000250: cca3 efbd a47b 98bd f406 173e f0d7 00be
00000260: cc19 2bbe 70af 0fbc 9e5c 593e 703c a73d
00000270: 4864 4abe 0c0b bb3d bc60 483e a2e7 84bd
00000280: 3571 56bf 615c 3cbf f000 393e a298 2cbf
00000290: 5658 08bf dc90 d6be 6950 fbbe 10b4 8f3d
000002a0: 0da3 3bbf 9090 963d 42ed 22bf c423 3dbf
000002b0: c26c a4be ff6b 0d3f 1ed4 8ebe e044 8dbc
000002c0: 8116 0cbf 3e47 12be 40c3 5bbf 50e2 f4be
000002d0: 60e3 8bbe f28c 01bf 10bf 02bd c53f e73e
000002e0: 1a3d d6be 95bd 16bf 6977 13bf 004c eab9
000002f0: 4c91 6ebd d2ce babe fabe ebbe 2ade da3e
00000300: ebd0 d83e 3acb cd3e 3c46 203e ffe7 313f
00000310: 708d 35bc 9826 24be f94c b3be a797 4fbe
-0.6446988 -0.65228206 0.20211342 -0.755099 -0.77544427 -0.5203137 -0.32322308 -0.043889806
-0.57875246 0.006695166 -0.66577816 -0.70791197 -0.41859725 0.58105165 -0.34183133 -0.21188569
-0.5859933 0.009648753 -0.6098334 -0.543151 -0.19667295 -0.13792099 -0.06523013 0.55528015
-0.22041489 -0.07306948 0.5921352 0.10211012 0.055230916 -0.24202932 0.0068124817 0.34453613
0.668936 0.47710094 0.75319684 0.47288 0.5030607 0.07198076 -0.35949224 -0.124626964
-0.616286 -0.5942791 0.108074725 -0.61792076 0.5714767 -0.32607904 0.6016151 0.0838919
-0.18960705 -0.40807682 0.43502247 -0.3264026 0.69259536 -0.023230687 0.4346063 0.024303079
0.42460576 -0.2963876 -0.5634792 -0.32501474 -0.7066691 -0.54027694 -0.017353997 -0.17544618
-0.33007768 -0.5682357 0.03602439 0.17417431 -0.21122815 -0.507268 -0.1684157 -0.44320002
-0.047588482 -0.15925184 0.007482156 -0.49938843 0.121546954 -0.09147923 -0.31766203 -0.5456408
-0.55726707 -0.71901613 -0.04289888 -0.39325598 -1.1534468 -0.015317226 -0.2979036 0.15683186
-0.5049066 -0.098776445 -0.30324024 -0.071297966 -0.3737061 0.50612307 -0.27573496 -0.18695045
-0.7376129 -0.62905395 -0.8775551 -0.69356567 -0.5262436 -0.58428496 -0.03307742 0.41278276
-0.67168355 -0.70797 -0.53033 -0.15605125 0.38875636 -0.53717375 -0.86485523 -0.62538564
-0.5555409 -0.46984953 -0.65661347 -0.38050675 0.21481302 -0.46643618 -0.56448483 -0.3336512
-0.4582127 -0.1493393 -0.1381861 0.4216045 -0.049260054 -0.4380623 -0.08173527 0.03125918
-0.13156077 -0.3645694 -0.60825443 0.19261989 0.25805214 0.3634388 0.0096992105 0.41655195
-0.12935552 0.080172904 -0.14109132 -0.3313562 0.02167347 -0.17741784 0.13537884 0.030640185
-0.16268022 0.12645271 0.05104056 -0.15840271 -0.11701164 -0.074454576 0.14748746 -0.12582374
-0.1670906 -0.008769855 0.21226737 0.081658244 -0.19764817 0.091329664 0.19568151 -0.06489493
-0.8376649 -0.7357846 0.18066764 -0.674204 -0.5325979 -0.41907394 -0.49084786 0.07016766
-0.7329567 0.07351792 -0.63643277 -0.738827 -0.32114226 0.55242914 -0.27896208 -0.017244756
-0.5472184 -0.14284989 -0.858448 -0.47828913 -0.2732191 -0.5060569 -0.031920493 0.4516584
-0.41843492 -0.5888303 -0.5760408 -0.00044688582 -0.058244035 -0.36485916 -0.4604414 0.42747623
0.42346892 0.40194112 0.15651792 0.6949462 -0.011081085 -0.16030347 -0.35019663 -0.20272695

fc4.bias f4 [10]
00000000: f2b4 debe d812 cfbe 05f4 05bf 05b2 16bf
00000010: a331 9fbe 69e5 1bbf 869b c9be 1631 4cbe
00000020: 7551 8ebe 611d 15bf
-0.43497425 -0.40444064 -0.5232547 -0.58865386 -0.31092557 -0.6089693 -0.39376467 -0.199406
-0.27796522 -0.58247954

fc5.weight f4 [10, 10]
00000000: 4042 d63b 1a6a d4be aed8 a5bd e439 a2be
00000010: 1438 92be 6dd3 16bf 455b edbe d03b 9dbc
00000020: b04d 6d3d f7bd 37bf ec9a efbd 8e8b 56bc
00000030: 2c73 eebd bd8f 8fbe f991 5dbe 274f a2be
00000040: 419f 93be 9600 4f3e 3f51 70be dcea 7dbd
00000050: c923 c2be 2b2c 02bf 8f91 39bf 075b 1bbe
00000060: 0cc0 13bf 2c7b 083e 49f8 933e fcbc 373e
00000070: 7504 b7be c10c 35be b494 11bf e5f5 74bf
00000080: 49c4 3dbf f2e8 a9be 81a9 85be 075c 7b3e
00000090: 815c f1be 6669 90be 0a5e 67be c148 9ebe
000000a0: aafd ecbe ac0e f2bd 030c 77be 4d6f 883e
000000b0: 7689 4cbf fcc6 30bf 8049 87bd 6cf0 65be
000000c0: 474f b5be eb27 13be 3c5f 09bf f745 0cbf
000000d0: ee15 8fbe 3c57 283e 7783 19bf e059 653c
000000e0: d838 5ebf c663 8cbe 38cf fbbe 6712 0fbf
000000f0: 80c4 4ebf e5c1 4bbe ab46 45bf 2845 783e
00000100: 8053 47bf 0a6c 1fbe cf03 e9be e026 e8bd
00000110: 9fdd 57bf ada1 71be 4fa9 24be 8a72 23be
00000120: 9b33 f6be ba62 413f 889a 54be 4b70 3a3f
00000130: 4884 18be fb99 4cbe 2447 80be 7b3f 1cbf
00000140: f085 cebc d2d5 36bf c4aa 0abf 9782 413f
00000150: 000b 563d 201a fe3e c8da 52be b04e 22be
00000160: ba46 0fbe 3915 33be 1fe7 ed3e 9473 17bd
00000170: 69b7 69bd 8218 0a3f d4fc 1e3f d9bc aabd
00000180: d77d e2bd 966b 1fbe df80 2e3f 7f2a 4fbe
0.0065386593 -0.414872 -0.08097969 -0.31684792 -0.2855841 -0.5891636 -0.46358696 -0.01919356
0.057935417 -0.7177424 -0.11699471 -0.013094796 -0.11643061 -0.2803935 -0.21637715 -0.31701013
-0.2883244 0.20215067 -0.23468493 -0.061991557 -0.37917927 -0.50848645 -0.7248773 -0.15171443
-0.57714915 0.13328236 0.28900364 0.17943186 -0.35745588 -0.17680646 -0.5686753 -0.95687705
-0.7412763 -0.33185536 -0.26105884 0.24546824 -0.47140887 -0.28205413 -0.22594467 -0.30914882
-0.4628728 -0.11819205 -0.24125676 0.26647416 -0.7989725 -0.69053626 -0.06605816 -0.22454995
-0.35412046 -0.14370696 -0.5366094 -0.5479426 -0.2794642 0.16439527 -0.59966224 0.013998479
-0.86805487 -0.2741987 -0.49181533 -0.55887455 -0.80768585 -0.19898184 -0.77060956 0.24245131
-0.77861786 -0.15568557 -0.45510718 -0.1133554 -0.8432254 -0.2359683 -0.16080211 -0.15961662
-0.48086247 0.7554127 -0.20762074 0.72827595 -0.14894211 -0.19980614 -0.25054276 -0.61034364
-0.02521035 -0.71420014 -0.5416682 0.7558989 0.052256584 0.49629307 -0.20591271 -0.1585033
-0.13991824 -0.17488565 0.46465394 -0.03697546 -0.05705968 0.53943646 0.62104535 -0.08336801
-0.11059158 -0.15568385 0.6816539 -0.20231055

fc5.bias f4 [10]
00000000: bb10 1abf f294 12be 9ac3 37bf 714a eabe
00000010: c454 18bf 4cdf 3fbf 4f24 d6be 6e76 93be
00000020: 727f 17bf a0b1 64be
-0.6018178 -0.1431463 -0.7178284 -0.4575992 -0.5950434 -0.749501 -0.41824576 -0.28801292
-0.5917884 -0.22333384

fc6.weight f4 [2, 10]
00000000: 1536 163f 3a35 43be 6b2f a13e bdcb 8f3e
00000010: 0bf6 18bf e159 173f c321 90be 8a04 25be
00000020: ad5e 1ebf 705c 45be 7761 66be 5e21 1f3d
00000030: e7de 32bf 839a cebe ce3e da3e a40c bbbe
00000040: 4b21 ec3e de74 6c3e 2da9 803e 5e13 49bd
0.5867627 -0.19063273 0.3148149 0.28085127 -0.5975043 0.5912152 -0.28150758 -0.16115013
-0.61863214 -0.19273543 -0.22498117 0.03885018 -0.6987137 -0.40352258 0.4262604 -0.36533082
0.4611915 0.23091456 0.2512907 -0.049090736

fc6.bias f4 [2]
00000000: 8362 25be 744d d93c
-0.1615086 0.02652619
