webap/hiv.pt (torch, 13035 bytes, 6 tensors)

weight f4 [64, 4]
-0.27733037 -0.7327599 0.68127567 -0.1531187 -0.36289996 1.0731817 0.8562951 -0.6502698
-0.66914415 0.70681113 -0.9528279 -0.07113897 0.6346612 -0.32140496 0.41709968 0.43628135
-0.53906626 -0.31575558 -0.15229958 -0.8995697 0.4254292 0.33269894 0.5625139 -1.0446509
-0.50557625 -0.93753797 0.018833729 0.7818921 -0.2926161 0.81337154 -0.114816636 -0.8404042
0.5550007 -0.47712967 -0.18273008 -0.56103504 -0.927149 0.22472794 -0.9285058 0.42703193
0.0018763193 0.4581857 -1.3351141 0.088094674 0.7210954 -0.910957 0.68119586 -0.3310548
-0.31062984 -0.7928157 -1.308908 0.16571221 0.013750228 0.14293268 0.9691387 0.50913703
-1.2828946 0.3341582 0.1767865 0.36630082 1.384499 -0.019090919 0.745557 0.781241
0.5827905 0.76895875 -0.8046531 0.45112613 -0.19149786 -0.24670771 -1.1670761 0.859543
-0.43528068 0.28670064 -0.08483257 -0.2674687 0.23080426 -0.84657794 -0.023543393 0.41098744
-0.4432402 -0.9975049 0.5765893 -0.38040265 -0.008402901 -0.49596092 -0.7295435 -0.7747252
-0.7092692 0.35265732 -1.324103 -0.3093236 -0.1976618 -0.01289971 -1.0021484 -0.9732706
-0.0352113 -0.033692036 -0.9568561 0.7062973 0.7746269 -0.64730346 0.13939883 -0.65209866
0.19874293 0.3404851 0.83877534 0.11959113 -0.3293883 -0.4969798 0.5094037 0.13828102
-0.846513 -0.12608609 -0.15288697 0.74291795 0.74432355 -0.40244633 0.10940587 -0.84849554
-0.21089987 0.5248741 0.24241252 1.3549517 -0.70071113 0.48488468 0.0742433 0.7805547
-0.48170736 -0.20748106 0.0034040452 0.44794595 -0.42345664 -0.3838419 1.3113108 0.54967946
0.42736855 -0.35705188 0.025419855 -0.4660972 -0.23740643 -0.6342368 0.60906845 -0.73718107
-0.7577583 -0.5469139 0.077377915 -0.704369 -0.5218278 0.71877545 0.83336616 -0.44115314
0.38515028 -0.3098767 -0.38152656 -0.932305 0.19617066 -0.7157085 0.07036248 0.3069264
-0.8165299 -0.6319616 -0.59454435 0.19314875 0.07513962 -0.6826159 0.35730127 -0.4870533
-0.46869853 1.1420151 -1.1460714 0.5203068 -0.68688065 0.89864457 0.40546075 -0.50118685
-0.4541077 0.14493571 0.83590853 0.7338083 -0.5305688 -0.7162338 0.6691121 0.951291
-0.7805009 0.12982376 -0.7582911 0.66783154 -0.73080623 1.0294518 0.80892193 1.0391104
-0.3426669 0.826436 0.06602835 -0.3893323 0.6472365 -0.5174662 -1.0081909 0.51367533
-0.622611 0.11155146 0.41875297 0.72991556 -0.24136832 0.011495763 0.044805285 0.057157483
-0.44937563 0.2527378 -0.075217836 1.0332807 0.19999287 0.2127287 -1.1733823 -0.09704067
-0.20307253 -0.98680675 0.068688616 -0.4720552 0.07944477 0.98558736 -0.05433136 -0.29095766
0.6096003 0.54833406 0.5040879 -0.6938467 -0.14631937 -0.36300823 0.6502401 0.6870756
0.012575182 0.43629274 0.9933344 -0.496204 0.27200803 1.0289699 -1.6023679 -0.32780015
-0.7819219 0.1271718 -0.20008229 0.46066305 0.7000515 -0.6272306 -0.87396073 -0.49246475
0.39012304 -0.90880424 0.33241284 -0.77940315 -0.3333191 -0.08309977 -0.14234173 0.7447581
00000000: 3ffe 8dbe 2796 3bbf 1568 2e3f 26cb 1cbe
00000010: 06ce b9be 055e 893f 2836 5b3f 1578 26bf
00000020: 084d 2bbf 93f1 343f 87ec 73bf 4fb1 91bd
00000030: 2879 223f 318f a4be 178e d53e 4560 df3e
00000040: 3f00 0abf b7aa a1be 6cf4 1bbe 334a 66bf
00000050: dbd1 d93e 8457 aa3e e900 103f 1fb7 85bf
00000060: 726d 01bf 7d02 70bf 3149 9a3c 152a 483f
00000070: c7d1 95be 1e39 503f fc24 ebbd bb24 57bf
00000080: 8714 0e3f 574a f4be 981d 3bbe fe9f 0fbf
00000090: a359 6dbf 151f 663e 8eb2 6dbf eea3 da3e
000000a0: d4ee f53a 5197 ea3e 05e5 aabf fb6a b43d
000000b0: b599 383f 7a34 69bf da62 2e3f 0480 a9be
000000c0: e00a 9fbe f8f5 4abf 4c8a a7bf 76b0 293e
000000d0: a348 613c f25c 123e 7919 783f ce56 023f
000000e0: e435 a4bf c916 ab3e 8507 353e c88b bb3e
000000f0: 4337 b13f 8f64 9cbc d3dc 3e3f 69ff 473f
00000100: c231 153f 7bda 443f bffd 4dbf 01fa e63e
00000110: 0418 44be f2a0 7cbe c062 95bf 030b 5c3f
00000120: 1cdd debe 6dca 923e b3bc adbd a8f1 88be
00000130: f457 6c3e 55b9 58bf 13de c0bc f26c d23e
00000140: 61f0 e2be 7b5c 7fbf 5b9b 133f 23c4 c2be
00000150: 52ac 09bc 97ee fdbe 5dc3 3abf 6454 46bf
00000160: ab92 35bf 808f b43e 357c a9bf aa5f 9ebe
00000170: db67 4abe 4e59 53bc 6646 80bf 4328 79bf
00000180: b939 10bd a900 0abd 85f4 74bf e6cf 343f
00000190: f34d 463f aeb5 25bf 91be 0e3e f0ef 26bf
000001a0: 4483 4b3e 1054 ae3e fbb9 563f 32ec f43d
000001b0: 95a5 a8be 2374 febe 4868 023f 8a99 0d3e
000001c0: 13b5 58bf b61c 01be 678e 1cbe df2f 3e3f
000001d0: fd8b 3e3f 720d cebe 2f10 e03d 0137 59bf
000001e0: 23f6 57be 265e 063f fd3a 783e 0f6f ad3f
000001f0: ce61 33bf ce42 f83e df0c 983d 6fd2 473f
00000200: 59a2 f6be ea75 54be 6716 5f3b 2c59 e53e
00000210: 4fcf d8be ed86 c4be 08d9 a73f cbb7 0c3f
00000220: 0dd0 da3e 81cf b6be 4d3d d03c 4ba4 eebe
00000230: ac1a 73be 585d 22bf e9eb 1b3f e6b7 3cbf
00000240: 73fc 41bf 8d02 0cbf 5078 9e3d 8751 34bf
00000250: 8296 05bf ab01 383f 7c57 553f d3de e1be
00000260: 6b32 c53e 29a8 9ebe 7357 c3be 8aab 6ebf
00000270: f6e0 483e ac38 37bf 341a 903d 7525 9d3e
00000280: 1b08 51bf 3cc8 21bf 0f34 18bf c9c8 453e
00000290: cde2 993d eabf 2ebf 31f0 b63e 0d5f f9be
000002a0: 41f9 efbe 8d2d 923f 78b2 92bf d432 053f
000002b0: 69d7 2fbf 920d 663f 8d98 cf3e c84d 00bf
000002c0: ce80 e8be 076a 143e 1afe 553f dcda 3b3f
000002d0: 5bd3 07bf 195b 37bf ee4a 2b3f cf87 733f
000002e0: e8ce 47bf 85f0 043e 5e1f 42bf 02f7 2a3f
000002f0: 1e16 3bbf 14c5 833f 8215 4f3f 9201 853f
00000300: 0972 afbe 4f91 533f df39 873d 9056 c7be
00000310: 4bb1 253f aa78 04bf 660c 81bf 3a80 033f
00000320: 6f63 1fbf 1875 e43d ca66 d63e bfdb 3a3f
00000330: 4229 77be ba58 3c3c bf85 373d f71d 6a3d
00000340: 9014 e6be d966 813e cf0b 9abd 8b42 843f
00000350: eeca 4c3e 8dd5 593e 6431 96bf 42bd c6bd
00000360: 3ff2 4fbe 5e9f 7cbf 9eac 8c3d 38b1 f1be
00000370: f1b3 a23d 744f 7c3f 8f8a 5ebd 67f8 94be
00000380: c40e 1c3f 9f5f 0c3f e80b 013f f09f 31bf
00000390: bfd4 15be 37dc b9be 2376 263f 30e4 2f3f
000003a0: 2308 4e3c c361 df3e 2a4b 7e3f 730e febe
000003b0: a344 8b3e 49b5 833f 641a cdbf 6cd5 a7be
000003c0: 092c 48bf 5339 023e 5fe2 4cbe 07dc eb3e
000003d0: 9336 333f 2f92 20bf e4bb 5fbf 5724 fcbe
000003e0: 35be c73e 65a7 68bf 0432 aa3e f786 47bf
000003f0: cda8 aabe 3630 aabd 08c2 11be 78a8 3e3f

bias f4 [64]
0.7790467 0.41150594 0.86351246 0.38075736 0.74363935 -1.6736068 -1.1153053 -0.51499647
-0.781631 -0.51114494 -0.19063452 0.37698072 -0.68456894 -0.19930702 -0.6437366 -0.2562649
-0.83699673 0.39928028 0.70472383 -0.87944895 -0.14572878 -0.03932431 0.7138462 0.5966582
0.15982749 -0.09945303 -1.3651726 -0.6192557 -0.14403449 -0.07473774 -0.2888505 0.62001866
0.509235 0.442071 -0.595264 -0.52381563 -0.66294944 0.22964898 -0.866059 0.502086
0.29322764 -0.61477864 0.11858149 0.18462788 -0.34217852 0.15630597 0.12017918 -0.3542131
0.33027193 0.24296106 -0.6001716 0.8229576 0.1084065 -0.37258378 0.06508426 0.47146305
-0.1264052 -0.5605086 0.01349609 -0.42826718 0.45383736 0.5941902 0.7433897 0.30227214
00000000: 9b6f 473f e8b0 d23e 270f 5d3f a1f2 c23e
00000010: 265f 3e3f bf38 d6bf 53c2 8ebf cfd6 03bf
00000020: f818 48bf 65da 02bf b235 43be 9e03 c13e
00000030: e93f 2fbf 2417 4cbe eccb 24bf 2735 83be
00000040: 6b45 56bf 776e cc3e c868 343f 9123 61bf
00000050: ed39 15be 8712 21bd a0be 363f 97be 183f
00000060: d1a9 233e 08ae cbbd fabd aebf 8b87 1ebf
00000070: c77d 13be 1a10 99bd 36e4 93be 8bb9 1e3f
00000080: 3a5d 023f 2157 e23e 3963 18bf c818 06bf
00000090: 0eb7 29bf 1a29 6b3e 0bb6 5dbf b588 003f
000000a0: ef21 963e 2262 1dbf dada f23d 170f 3d3e
000000b0: 0632 afbe ac0e 203e 8020 f63d 6b5b b5be
000000c0: 6719 a93e c9ca 783e d9a4 19bf 59ad 523f
000000d0: 3a04 de3d 4dc3 bebe e64a 853d 9b63 f13e
000000e0: 5d70 01be 7e7d 0fbf b41e 5d3c d645 dbbe
000000f0: 5f5d e83e d91c 183f ca4e 3e3f 6ac3 9a3e

weight f4 [32, 64]
-0.047065284 -0.059060078 -0.113546036 0.05261935 -0.072534695 -0.11208872 -0.039676804 -0.15014508
0.12194515 0.0695568 -0.07216523 -0.12173921 -0.10688892 -0.11685646 -0.20374383 0.08120253
-0.07376036 -0.15304002 -0.13183391 0.14300184 -0.023116445 -0.020352205 -0.042425312 -0.16421238
-0.1446824 0.051015016 0.019533368 -0.021338722 0.12758663 0.0036456797 -0.046125814 -0.16709037
-0.12897857 0.106780194 0.14160082 0.122248754 0.043752022 -0.14976993 0.0049379948 -0.11508124
-0.028205452 0.12835075 -0.1346848 -0.07091016 -0.12801643 -0.063898765 -0.09944973 -0.08737906
0.029329857 -0.059122987 0.0039034185 0.017269528 -0.088865556 0.09462845 -0.13458297 -0.044257518
-0.13182762 0.14788197 -0.041359574 -0.100452594 -0.22146113 -0.085739955 -0.19458397 -0.14582424
-0.22333278 0.13240144 0.23453817 -0.1513297 0.006158466 0.17098299 -0.09807259 -0.78683126
-0.7239744 0.261385 -0.9489713 -0.38210595 -0.5755007 -0.31801 0.32796106 0.6505399
-0.020238088 -0.040025495 0.12721339 -0.021919694 0.29690924 0.20942715 0.14783017 0.24228828
-0.23951848 0.16437553 -0.5736055 -0.4991569 -0.7759093 0.33676016 -1.1980566 -0.22556084
-0.43142852 -0.01261159 -0.50927156 -0.84069663 0.42870268 0.3742913 0.25738758 -1.1203358
-0.47684652 0.5767154 0.30072844 0.33122462 1.7860265 -1.3975403 -0.19172369 -1.7498018
0.27764687 0.0040884474 3.1198568 0.18221211 1.0758672 -0.6514523 -0.4103069 0.19441776
0.14053832 -1.6489003 0.047770694 -0.4020082 -0.08433912 0.0044118096 -0.14774181 1.3522407
-0.11236356 0.042171914 -0.13026923 0.012542816 -0.17251508 -0.16671951 -0.1649068 0.023132898
-0.04281921 -0.013161513 0.028214272 -0.09422842 -0.112552926 0.062327493 0.06333529 -0.12474805
0.12349812 -0.1681807 -0.13778849 -0.06827234 -0.03454079 -0.15052575 0.03787358 0.011147783
0.0064007975 0.0012337792 0.0023748067 -0.16574076 -0.075742595 0.0018654371 -0.05245102 0.0446525
-0.11411143 -0.085370675 -0.12466454 0.0051396885 -0.10881317 0.04119057 0.051483776 0.052948013
0.041279703 -0.08117491 0.065058514 0.017522516 -0.16626589 -0.18434183 0.028600993 -0.08601199
-0.111294165 0.022274615 -0.14773196 -0.16514589 0.029582938 -0.001272651 -0.058093227 0.0004285636
0.045289062 -0.14201503 -0.0801052 0.014348404 -0.165795 -0.0097335465 -0.078674726 -0.0126679
0.5696254 -0.9665267 -0.41179073 0.5279967 -0.049095087 -2.1657677 -0.46804145 -0.5083126
-0.42087448 -0.1560299 -0.06645218 0.6735395 0.98089033 -0.026024042 0.8607022 -0.8955291
0.009382958 -0.056138642 -0.053650007 -0.32289362 0.71447444 0.41384587 0.037122183 -0.27668867
0.19907759 0.34529337 -2.7241044 -0.15840031 -0.23339123 0.3932733 0.030760491 -0.15898451
-0.023984037 -0.2167239 -0.25602135 0.4129238 -0.6626552 -0.8562971 -0.93055296 0.16144297
0.091411985 0.26376313 -2.5395749 -1.4620732 0.17548358 -0.09428254 0.07759136 0.62341267
-0.37272495 0.32504612 -0.6115223 0.0016504058 -0.042373184 0.64513636 0.774137 0.18898852
0.1684337 0.22475573 -0.23928598 -0.3436489 -0.21245342 0.64926684 0.3931048 0.05022212
00000000: 87c7 40bd fbe8 71bd d38a e8bd 6387 573d
00000010: 128d 94bd c58e e5bd 2584 22bd a2bf 19be
00000020: 61be f93d cc73 8e3d 5dcb 93bd 6852 f9bd
00000030: 94e8 dabd 7152 efbd 39a2 50be 834d a63d
00000040: ac0f 97bd 86b6 1cbe 78ff 06be 136f 123e
00000050: b35e bdbc abb9 a6bc 2ac6 2dbd 4a27 28be
00000060: a027 14be 1ff5 503d 7104 a03c 8bce aebc
00000070: 12a6 023e 5bec 6e3b 6cee 3cbd bd19 2bbe
00000080: f512 04be 93af da3d ceff 103e 8e5d fa3d
00000090: 5235 333d 4a5d 19be e7ce a13b b7af ebbd
000000a0: 1f0f e7bc 616e 033e d0ea 09be 5939 91bd
000000b0: bd16 03be 5bdd 82bd 4dac cbbd cbf3 b2bd
000000c0: 2b45 f03c f22a 72bd 7fd0 7f3b d378 8d3c
000000d0: 25ff b5bd 90cc c13d 1ed0 09be 5f47 35bd
000000e0: d2fd 06be 5f6e 173e a868 29bd 17ba cdbd
000000f0: b5c6 62be 6e98 afbd 0541 47be f352 15be
00000100: 59b1 64be 3e94 073e c62a 703e 2cf6 1abe
00000110: f5cc c93b 2a16 2f3e 48da c8bd c66d 49bf
00000120: 6356 39bf 41d4 853e c8ef 72bf 64a3 c3be
00000130: 0454 13bf 35d2 a2be 83ea a73e c889 263f
00000140: 59ca a5bc c6f1 23bd 3a44 023e ee90 b3bc
00000150: 7d04 983e 1274 563e cb60 173e 6b1a 783e
00000160: 5544 75be 0f52 283e cfd7 12bf 7e91 ffbe
00000170: fea1 46bf d46b ac3e eb59 99bf 6cf9 66be
00000180: 33e4 dcbe d8a0 4ebc 9f5f 02bf e537 57bf
00000190: eb7e db3e 1ca3 bf3e 4ec8 833e 2a67 8fbf
000001a0: 3a25 f4be 9fa3 133f 14f9 993e 4696 a93e
000001b0: 849c e43f 9ae2 b2bf 3753 44be 81f9 dfbf
000001c0: bb27 8e3e 62f8 853b bcab 4740 d095 3a3e
000001d0: 04b6 893f 94c5 26bf bf13 d2be 7315 473e
000001e0: 47e9 0f3e 2a0f d3bf 34ab 433d 05d4 cdbe
000001f0: fdb9 acbd f190 903b a149 17be 3916 ad3f
00000200: de1e e6bd 75bc 2c3d 4c65 05be 6280 4d3c
00000210: cba7 30be 85b8 2abe 54dd 28be 3481 bd3c
00000220: 3263 2fbd 63a3 57bc 9e21 e73c d4fa c0bd
00000230: 2682 e6bd 1d4b 7f3d efb5 813d e87b ffbd
00000240: 95ec fc3d 9037 2cbe 6d18 0dbe 5ed2 8bbd
00000250: a57a 0dbd 6c23 1abe 5421 1b3d 31a5 363c
00000260: c8bd d13b c3b6 a13a a5a2 1b3b f2b7 29be
00000270: ef1e 9bbd af81 f43a e1d6 56bd 8ae5 363d
00000280: 41b3 e9bd d2d6 aebd 1f50 ffbd d56a a83b
00000290: 70d9 debd 71b7 283d a7e0 523d 04e0 583d
000002a0: e814 293d 083f a6bd 663d 853d 618b 8f3c
000002b0: 9b41 2abe 1bc4 3cbe a14c ea3c 0e27 b0bd
000002c0: 32ee e3bd 4179 b63c 0c47 17be 011c 29be
000002d0: eb57 f23c 15cf a6ba 2af3 6dbd d5b0 e039
000002e0: 0681 393d 636c 11be 320e a4bd 9115 6b3c
000002f0: 2ac6 29be 7479 1fbc 3720 a1bd 068d 4fbc
00000300: f8d2 113f 4b6e 77bf 3cd6 d2be cb2a 073f
00000310: ee17 49bd f09b 0ac0 21a3 efbe c620 02bf
00000320: dc7c d7be 4dc6 1fbe 1518 88bd 166d 2c3f
00000330: a11b 7b3f 5f30 d5bc fb56 5c3f 6541 65bf
00000340: faba 193c a2f1 65bd 1cc0 5bbd 5052 a5be
00000350: cce7 363f 9be3 d33e 6e0d 183d 23aa 8dbe
00000360: ffda 4b3e 4bca b03e ba57 2ec0 b133 22be
00000370: 1cfe 6ebe 1e5b c93e 6dfd fb3c d6cc 22be
00000380: 2c7a c4bc dfec 5dbe 3b15 83be c06a d33e
00000390: c5a3 29bf 4936 5bbf b838 6ebf 4e51 253e
000003a0: 3536 bb3d f60b 873e 6588 22c0 3725 bbbf
000003b0: f8b1 333e 3417 c1bd 38e8 9e3d f997 1f3f
000003c0: ced5 bebe 726c a63e ba8c 1cbf 6e52 d83a
000003d0: 818f 2dbd a827 253f d82d 463f 3586 413e
000003e0: e279 2c3e 5e26 663e 6207 75be c0f2 afbe
000003f0: 648d 59be 5a36 263f 0845 c93e b6b5 4d3d

bias f4 [32]
-0.18474899 0.14589725 -0.05362765 0.14584205 -0.13832663 -0.26276162 0.3384979 0.12741822
0.043001994 -0.41513237 -0.1759371 0.22756405 -0.08145425 0.13745263 -0.37050992 0.19577323
0.1354682 -0.07124004 -0.1342102 0.18762913 0.1492758 -0.0398623 -0.10968995 -0.21583971
0.123384446 0.26462284 0.09225844 0.034740034 0.050047774 0.038742613 -0.00062642223 0.015028587
00000000: d72e 3dbe 1766 153e aba8 5bbd 9e57 153e
00000010: 7fa5 0dbe b188 86be 994f ad3e ec79 023e
00000020: dc22 303d 3b8c d4be db28 34be 8d06 693e
00000030: 7cd1 a6bd 62c0 0c3e 7ab3 bdbe c778 483e
00000040: 2db8 0a3e 4ce6 91bd 666e 09be da21 403e
00000050: c1db 183e a746 23bd 20a5 e0bd 1605 5dbe
00000060: fcb0 fc3d a57c 873e fef1 bc3d 914b 0e3d
00000070: e5fe 4c3d 93b0 1e3d 7c36 24ba 763a 763c

weight f4 [2, 32]
0.052791484 -1.1492518 -0.028061496 1.0672884 -0.8937319 1.501851 -1.1771815 -3.6296945
0.07176145 2.4599273 0.109333 1.2165753 -0.16101407 -1.2254686 1.3065035 -1.4015095
-0.682264 -0.15269144 1.291838 0.3264543 -0.6250126 0.15762065 0.11027757 -0.90630096
-0.4149044 -0.5667638 1.9616735 0.9170408 -0.80031264 0.06213418 -0.41333383 0.0038641358
0.08720926 1.2311476 0.024018036 -1.248781 1.0439892 -1.3926016 0.9202946 3.4922354
-0.086596034 -2.4840071 0.034360733 -1.3397701 -0.062084008 1.13425 -1.2801365 1.3372567
0.7440867 -0.05908706 -1.5128098 -0.57587 0.5272374 0.05107622 0.071632445 0.63677955
0.2583795 0.5886612 -1.9484838 -0.89664656 0.8767096 0.04870957 0.49709874 0.007996901
00000000: e23b 583d af1a 93bf 39e1 e5bc e89c 883f
00000010: 9dcb 64bf a73c c03f e2ad 96bf ea4c 68c0
00000020: abf7 923d 736f 1d40 fbe9 df3d bdb8 9b3f
00000030: dfe0 24be 28dc 9cbf 823b a73f aa64 b3bf
00000040: daa8 2ebf 255b 1cbe f35a a53f 0525 a73e
00000050: d300 20bf 4f67 213e 35d9 e13d 5703 68bf
00000060: 596e d4be 6f17 11bf 1e18 fb3f 30c3 6a3f
00000070: 4ae1 4cbf 6980 7e3d 7ea0 d3be 713d 7d3b
00000080: c59a b23d 3f96 9d3f 79c1 c43c 0ed8 9fbf
00000090: 70a1 853f c540 b2bf 6d98 6b3f c980 5f40
000000a0: 4359 b1bd f9f9 1ec0 d7bd 0c3d 967d abbf
000000b0: cd4b 7ebd 1b2f 913f 83db a3bf 3a2b ab3f
000000c0: 777c 3e3f 4605 72bd c0a3 c1bf 376c 13bf
000000d0: 08f9 063f 4c35 513d 08b4 923d fc03 233f
000000e0: 514a 843e 80b2 163f eb67 f9bf a18a 65bf
000000f0: 0a70 603f b083 473d ba83 fe3e 6f05 033c

bias f4 [2]
0.07929168 0.1607442
00000000: ad63 a23d 219a 243e
